docker/model/model.tflite (tflite, 1700 bytes, 3 tensors)

arith.constant f4 [1, 8]
0	0xbf35eb0d	-0.71061784
1	0xbf21c72f	-0.63194555
2	0xbf24890b	-0.6427161
3	0xbe030edc	-0.12798637
4	0x3e9767e0	0.29571438
5	0x3f07f142	0.53102505
6	0xbed6b935	-0.41938177
7	0x3f4ca0ab	0.7993266

sequential_1/dense_1/BiasAdd/ReadVariableOp f4 [8]
0	0xba8311d3	-0.0009999819
1	0xba831209	-0.0009999882
2	0x00000000	0.0
3	0x00000000	0.0
4	0x3a831159	0.0009999677
5	0x3a830f6c	0.0009999103
6	0xba831200	-0.0009999871
7	0x3a8310c6	0.0009999506

sequential_1/dense_1/MatMul f4 [8, 4]
0	0xbe8a5e8a	-0.27025253
1	0x3ee31a51	0.44356015
2	0x3dcd4dfa	0.100246385
3	0xbef70baf	-0.482511
4	0x3ee0cdb0	0.43906927
5	0x3d588c01	0.052867893
6	0xbf0fd15b	-0.56178826
7	0x3f171248	0.5901227
8	0x3ec510d6	0.38489407
9	0xbf284908	-0.65736437
10	0xbf22f4c8	-0.63654757
11	0xbf05fad5	-0.52335864
12	0xbe782dc4	-0.24236208
13	0xbea67d75	-0.3251759
14	0xbeca05db	-0.39457592
15	0x3bace480	0.0052762628
16	0xbf30fcbb	-0.69135636
17	0xbdde30b6	-0.108491346
18	0x3f0ed123	0.5578787
19	0xbe1441b7	-0.14478193
20	0x3e35d010	0.17755151
21	0xbea4d8d1	-0.32196668
22	0x3ed7333d	0.4203128
23	0xbee1a762	-0.44073015
24	0x3ec91cf0	0.3927989
25	0x3f1473d0	0.57989216
26	0x3e6fb8f1	0.23410393
27	0x3dd43c01	0.10363007
28	0x3f2a0e15	0.6642774
29	0xbe9f059f	-0.31058976
30	0xbda0e3f9	-0.07855982
31	0xbf28606f	-0.65772146
